demo-tflite/app/src/main/ml/example.tflite (tflite, 5504 bytes, 3 tensors)

StatefulPartitionedCall:0 f4 [32]
0	0x00000000	0.0
1	0x00000000	0.0
2	0x00000000	0.0
3	0x00000000	0.0
4	0x00000000	0.0
5	0x00000000	0.0
6	0x00000000	0.0
7	0x00000000	0.0
8	0x00000000	0.0
9	0x00000000	0.0
10	0x00000000	0.0
11	0x00000000	0.0
12	0x00000000	0.0
13	0x00000000	0.0
14	0x00000000	0.0
15	0x00000000	0.0
16	0x00000000	0.0
17	0x00000000	0.0
18	0x00000000	0.0
19	0x00000000	0.0
20	0x00000000	0.0
21	0x00000000	0.0
22	0x00000000	0.0
23	0x00000000	0.0
24	0x00000000	0.0
25	0x00000000	0.0
26	0x00000000	0.0
27	0x00000000	0.0
28	0x00000000	0.0
29	0x00000000	0.0
30	0x00000000	0.0
31	0x00000000	0.0

StatefulPartitionedCall_2:0 f4 [32]
0	0x00000000	0.0
1	0x00000000	0.0
2	0x00000000	0.0
3	0x00000000	0.0
4	0x00000000	0.0
5	0x00000000	0.0
6	0x00000000	0.0
7	0x00000000	0.0
8	0x00000000	0.0
9	0x00000000	0.0
10	0x00000000	0.0
11	0x00000000	0.0
12	0x00000000	0.0
13	0x00000000	0.0
14	0x00000000	0.0
15	0x00000000	0.0
16	0x00000000	0.0
17	0x00000000	0.0
18	0x00000000	0.0
19	0x00000000	0.0
20	0x00000000	0.0
21	0x00000000	0.0
22	0x00000000	0.0
23	0x00000000	0.0
24	0x00000000	0.0
25	0x00000000	0.0
26	0x00000000	0.0
27	0x00000000	0.0
28	0x00000000	0.0
29	0x00000000	0.0
30	0x00000000	0.0
31	0x00000000	0.0

arith.constant f4 [16, 32]
0	0xbc3462c4	-0.011009876
1	0xba62da12	-0.0008653711
2	0x3b916faf	0.0044383625
3	0xbc85289d	-0.016254717
4	0xbcb963f5	-0.022630671
5	0x3c5ed819	0.013601326
6	0xbc0b46cc	-0.008500766
7	0xbb667779	-0.0035166426
8	0xbb24aa92	-0.0025126082
9	0xbbbf2d3e	-0.0058342507
10	0x3c03c687	0.008042938
11	0x3c04c071	0.008102522
12	0xbb779ca1	-0.0037782567
13	0x3b95276f	0.00455182
14	0xbab5070d	-0.0013811305
15	0xb8b5796e	-8.6533706e-05
16	0xbc01eaa7	-0.007929481
17	0xbc58c0e6	-0.013229584
18	0xbceaeba7	-0.02867682
19	0x3ca2d672	0.019877646
20	0xbb800442	-0.0039067576
21	0x3ba947a0	0.005166009
22	0x3c0e0e82	0.008670451
23	0x3b9be63d	0.004757671
24	0xbc28820a	-0.01028491
25	0x3ca91bc5	0.020643124
26	0x3c1e49d6	0.009661159
27	0x3c30ebcf	0.010798409
28	0x3c645a90	0.013937607
29	0x3b0e4ba2	0.002171256
30	0x3b5ff27d	0.0034171634
31	0xbb8ec084	-0.0043564457
32	0xbbe1c86a	-0.0068903463
33	0x3bc4c181	0.006004513
34	0x3c5f3a4f	0.013624742
35	0x3ca1d09e	0.019752797
36	0x3c11ff94	0.008911032
37	0xbc2f9407	-0.010716445
38	0x3ca28873	0.019840455
39	0x3bc0f27b	0.005888281
40	0xbba870c2	-0.005140395
41	0xbc7c5e06	-0.015403276
42	0xbc74bb38	-0.014937215
43	0xbc019a22	-0.007910283
44	0xbc3be0e6	-0.011467194
45	0x3bebd8aa	0.007197459
46	0x3c217237	0.009853891
47	0x3b56e0ae	0.0032787728
48	0xbaa8500a	-0.0012841236
49	0xbbc71038	-0.0060749315
50	0xbba8baf6	-0.0051492406
51	0xbc16ba74	-0.009199727
52	0x3c0abf09	0.008468398
53	0xbbf7a465	-0.007557439
54	0xbc591301	-0.01324916
55	0x3b2264a0	0.0024779215
56	0xbb0d2c21	-0.0021541195
57	0xbc63cacc	-0.013903331
58	0xbc1c4293	-0.009537357
59	0xbb4f2ede	-0.0031613628
60	0x3c1c9b59	0.009558522
61	0xbc8b2db5	-0.016989568
62	0xbbbd172b	-0.005770584
63	0x3c871f22	0.016494337
64	0xbc8b5250	-0.017007023
65	0xbb8ea272	-0.004352861
66	0xba8874e0	-0.0010410808
67	0x3cb4e1ee	0.022080388
68	0xbc4cfb42	-0.012511076
69	0x3b3f77bb	0.0029215652
70	0xbc28d0f4	-0.010303725
71	0x3b88c53d	0.0041739033
72	0x3bb52cfc	0.005529044
73	0x3b71aa27	0.00368751
74	0x3b44dc37	0.0030038485
75	0xbb493080	-0.0030699074
76	0x3bacf041	0.005277664
77	0xbc3f3345	-0.011669938
78	0x3b9e3f7d	0.0048293457
79	0x3c98e1af	0.018662302
80	0xbcdfb424	-0.027307577
81	0x3ca79c16	0.02046017
82	0x3be6403d	0.007026701
83	0xbc2b0da0	-0.01044026
84	0x3c0ac540	0.00846988
85	0x3b24140b	0.002503636
86	0xbaf07745	-0.0018346092
87	0xbb2c7c94	-0.0026319372
88	0x3c845789	0.016155021
89	0x3c5c14e0	0.013432711
90	0xbc1a8f20	-0.009433538
91	0xbca74eca	-0.020423312
92	0xbac2f28f	-0.0014873313
93	0x3c42beed	0.011886341
94	0xbc820698	-0.015872285
95	0xbc26f980	-0.010191321
96	0x3ad7416a	0.0016422693
97	0xbce75353	-0.028237974
98	0x3c79352b	0.01521043
99	0x3c4c07a1	0.012452991
100	0xbc42ceb4	-0.011890102
101	0xbb72e24a	-0.0037061148
102	0xbb32ed19	-0.0027301966
103	0xbbf0f0e1	-0.0073529338
104	0xbc2cadd0	-0.010539487
105	0x3bab337d	0.0052246437
106	0xba27b416	-0.00063973793
107	0xbc312572	-0.01081215
108	0xbc7dc665	-0.0154891955
109	0x3be673f4	0.0070328657
110	0x3c0a3a4c	0.008436751
111	0x3a422174	0.00074054976
112	0x3c05bd75	0.008162846
113	0xbb5e782e	-0.0033946144
114	0xbc943b92	-0.018094812
115	0xbc0909e3	-0.008364174
116	0xbc3d691e	-0.011560706
117	0x3c3bdb86	0.011465913
118	0xba143774	-0.0005654015
119	0x3b005a12	0.0019584936
120	0x3b34b73b	0.0027575034
121	0xbc5f42d0	-0.013626769
122	0xbbb54830	-0.005532287
123	0x3b7c8127	0.003852913
124	0x3a7c04b7	0.00096137397
125	0x3bd83667	0.006598282
126	0xbbc2a02d	-0.0059395046
127	0x3bde6367	0.006786752
128	0xbc5324bd	-0.012887177
129	0xb9dc1c35	-0.00041982686
130	0xbbd9db0e	-0.006648428
131	0x3ca25ab2	0.019818638
132	0xbaf30733	-0.0018541574
133	0xbc59b55d	-0.013287869
134	0xbc1dc6b4	-0.009629894
135	0xbc649a7e	-0.013952849
136	0xbb517e61	-0.0031966197
137	0x3c8c8b8d	0.017156387
138	0x3c189f02	0.009315254
139	0xbbef91c0	-0.007311076
140	0xbc3c0233	-0.011475134
141	0x3b279957	0.0025573575
142	0xbc3c8a00	-0.011507511
143	0xbbfe1ece	-0.007755137
144	0xba9f3750	-0.0012147222
145	0xbc0ee547	-0.008721656
146	0x3bd34789	0.0064477366
147	0x3c801d67	0.01563902
148	0x3c5e079e	0.013551621
149	0x3c071c60	0.008246511
150	0xbba251af	-0.004953585
151	0xbb80d166	-0.0039312122
152	0xbacd157b	-0.001564666
153	0x3ba4c58d	0.0050284327
154	0xba4dbc9b	-0.0007848234
155	0x3bc2e885	0.0059481286
156	0xbbf206dd	-0.007386072
157	0xbba06174	-0.00489443
158	0x3ad207a4	0.0016024006
159	0xbbdaac4b	-0.006673371
160	0xbc3d48e0	-0.011553019
161	0xbaff503c	-0.0019478868
162	0x3c2b00b4	0.010437179
163	0xb9943f95	-0.00028276132
164	0x3c09c701	0.008409263
165	0x3a7b37af	0.00095831876
166	0x3c76bc3c	0.015059527
167	0x3c956b2d	0.018239582
168	0x3b47b58d	0.0030473203
169	0x3c880696	0.016604703
170	0xbb1e53af	-0.0024158766
171	0xbba40545	-0.005005511
172	0xba7d933e	-0.0009673125
173	0x3aef43c3	0.0018254447
174	0xbc0eb08e	-0.008709086
175	0x3c88e840	0.016712308
176	0x3a1486aa	0.00056658185
177	0xbc568064	-0.013092134
178	0x3b2a88ab	0.0026021402
179	0x3ad302e0	0.0016098879
180	0xba437fd3	-0.0007457707
181	0x3c8a04a0	0.016847908
182	0x3ba8de13	0.0051534264
183	0x3cbf5017	0.02335362
184	0x3c33b92a	0.0109694395
185	0x3c36bc6d	0.011153323
186	0xbbd6e65d	-0.006558223
187	0xbc87a6d7	-0.016559048
188	0xbc58e9a7	-0.013239301
189	0x3b1677db	0.0022959623
190	0xbc379e39	-0.011207157
191	0xbc0713ab	-0.008244435
192	0x3a8c01d3	0.0010681696
193	0xbb880242	-0.00415066
194	0x3c73e3de	0.014885871
195	0xbd14e695	-0.036352713
196	0x3962a222	0.00021613439
197	0xba4e56c1	-0.00078712037
198	0xbbb7b9d0	-0.0056068674
199	0xba819a20	-0.0009887852
200	0xbc9d1792	-0.019176278
201	0x3c103e1e	0.008803872
202	0xbc698c4a	-0.014254639
203	0x3c5e42b5	0.013565709
204	0x3be251dd	0.0069067315
205	0x39a88c50	0.00032147998
206	0xbc8a67de	-0.01689523
207	0xba7e35ab	-0.0009697328
208	0xbc12d7bd	-0.008962569
209	0xbbf64697	-0.007515739
210	0x3caad861	0.02085513
211	0xbbfb7260	-0.0076735467
212	0x3b15c809	0.0022854826
213	0x3c6950ab	0.014240424
214	0x3c0b7ecd	0.008514118
215	0xba73b03d	-0.0009295976
216	0x3c67d09e	0.014148859
217	0x3a3050be	0.0006725899
218	0x3b3816ce	0.0028089765
219	0x3bdd3bab	0.0067514977
220	0x3ca62afc	0.020284168
221	0x3a8b5c94	0.0010632449
222	0x3c03b0ee	0.008037789
223	0xbb5df10c	-0.00338656
224	0x3bcee702	0.0063141594
225	0x3cad352d	0.02114352
226	0x3a87e428	0.0010367678
227	0x3a9b6e74	0.0011858479
228	0x3c0c2713	0.008554238
229	0xbc2500ce	-0.010070993
230	0x3c229486	0.009923106
231	0xbb9296fe	-0.004473566
232	0x3c5b0e9d	0.013370183
233	0xbba1a204	-0.004932644
234	0xbc4b296d	-0.012400013
235	0xbc0ce4fe	-0.008599518
236	0xbadf7a46	-0.001704999
237	0x3bd301b0	0.00643941
238	0x3c3e8140	0.011627495
239	0x3ca9300a	0.02065279
240	0x3c012b46	0.007883852
241	0xbc154f57	-0.009113154
242	0xba2b5177	-0.00065352715
243	0xbc0c7ecd	-0.008575154
244	0x3a0fa16c	0.0005479071
245	0x3c5c9fd9	0.013465845
246	0x3c8782a8	0.016541794
247	0x3cc3c5d8	0.02389805
248	0xba770360	-0.0009422805
249	0x3aee1d33	0.0018166661
250	0xbb9df2ef	-0.0048202197
251	0x3b39be01	0.002834201
252	0xbc92fed2	-0.017943773
253	0xbbc7caa7	-0.006097156
254	0xbbcf0905	-0.006318214
255	0xbc470e1b	-0.012149359
