demo-yds-estimator/app/src/main/ml/YDS_256x256_2class_YDSNet_100-epochs_augsize2.tflite (tflite, 36112 bytes, 8 tensors)

sequential/dense_1/MatMul f4 [2, 128]
00000000: 6fc1 e7bf 7712 013f fe39 1fc0 f59a c8bf
00000010: f9cf 2cbd 374b b43f 544f 903f 23da 143f
00000020: ff44 523f 6608 d0bf 4a4c b4bf 0534 96bc
00000030: ed80 a2bf 0255 883f eb37 d9bf 3511 353f
00000040: cadd e0bf ef8a 1cc0 4ecc debc f10d e13e
00000050: ecbe 013f de23 8a3f d791 0cc0 dc22 2abe
00000060: c665 233e 4bbb a63d 3e78 8b3e 0e7e ecbf
00000070: 734f b8bd 467e 793f f0cb 573f e68e 7e3f
00000080: dff9 f8bf b354 eabc ad75 0ec0 1f6b 453f
00000090: c295 12c0 caa3 25c0 0530 f3bf e690 dfbf
000000a0: 1abf 713f d2e9 1f3e a0fe 653f 31ff c93d
000000b0: 59fd 44be 5623 893f ed3e f0bf 1807 bbbd
000000c0: c140 d4bf 12d1 03c0 1a0e 2bc0 3121 0abe
000000d0: 6332 7e3f 92c3 0f3d fd43 b53e faa8 d2bc
000000e0: 1993 743f cce9 9bbc cd72 24c0 446e d0bf
000000f0: b7ce 303f 4fee 223e 5370 3c3e a8f6 213e
00000100: 3761 25c0 9a06 9c3f 878d 06c0 22a8 803f
00000110: ed00 f1bf 76a8 d73c c25e 5a3f 01c3 02c0
00000120: 8d88 f7bf 0dda 663f f046 e13d 62b3 363e
00000130: f078 203e 87c1 133f c697 4a3f 699d a73f
00000140: 1a0a 523c 21d5 123c 6897 8f3f 8694 adbc
00000150: fa6c 22c0 228a 38be 4e44 473f 8525 d0bf
00000160: cc2e 93bd d6fe 19be c6e1 b53d 099e d23d
00000170: b4a1 f8bf 866e c6bf 3216 89bc 2bd7 3a3e
00000180: 8b92 3d3e 2a81 eebb c8bf a13d 11d3 0d3e
00000190: e90c 183f 77f6 6fbd 9ba6 e8bf bba6 07c0
000001a0: 05da 7b3d e78a f3bf 6353 e1bf 5ad1 b53e
000001b0: 395e 24bc 66cd cb3d f2a6 783d 5e3c 103f
000001c0: b280 dfbc 3811 36c0 f8bd 5f3f 1411 d0bf
000001d0: ce15 5d3f 7868 fcbb a783 ef3e 29b3 f0bf
000001e0: 4132 433f c88a 39be ff86 3c3e 6e3d b93f
000001f0: 3ed5 29be b263 863f 004e d9b9 8e3f fdbf
00000200: 509e c03f bef6 57bf a309 1740 d069 be3f
00000210: 37f2 c03d b53d a4bf f703 99bf d9c6 cebe
00000220: a4f3 69bf c400 d03f 5518 c03f 8972 84bd
00000230: fc80 9a3f a501 6cbf 721f 0040 7f8a 80bf
00000240: 83e7 c63f ec9b 2540 ece5 82bb 0036 12bf
00000250: 86bc 4fbe 49fa 96bf 4118 1540 d3a2 0bbc
00000260: 2c6a ffbb 0755 1abe 6ffb bcbd 263c 0440
00000270: 4dab 383e 01af 80bf 162f 4ebf 1225 4ebf
00000280: dab5 0140 d5bf 0dbd 09e9 1c40 9617 52bf
00000290: 12d3 1f40 9edb 0e40 08a9 e93f 387b da3f
000002a0: 8b69 6ebf 5794 46bd 1714 75bf a3f9 6b3d
000002b0: 3d26 cb3b 006c 77bf 7a08 ed3f e9aa a23d
000002c0: a04a c63f 025a 0340 5dd5 1840 ece7 9cbc
000002d0: ed0a 81bf 2e55 0fbd db89 b7be 6eb4 203e
000002e0: 8101 7fbf c80c c3bd 8f1c 1d40 7ec5 d43f
000002f0: b96e 5bbf 236c 5dbd 20be f2bd a07c ccba
00000300: abbf 1b40 e827 95bf 583d 0840 992d 6dbf
00000310: ae5d ea3f 92a5 c0bd a99a 68bf 1f33 0040
00000320: f28b dc3f bfce 6cbf c95a f23d b64a 113e
00000330: 9b8b 2e3e e0f5 48bf 81e8 80bf e4ae 87bf
00000340: 6819 26be 25c3 993c f14b 90bf d10f 35be
00000350: ab7e 1840 774e a13c 67ba 8abf 8182 e63f
00000360: 4009 d4bc b536 3b3e 839c 2cbd 8137 4b3e
00000370: a7a7 eb3f b5cc d63f 9a09 8fbb 9c7c 673c
00000380: 6b27 2d3e 3639 c4bd 78a5 8cbd 8d28 073e
00000390: edb2 c4be c5cc 2b3d 54a2 f73f 9e28 0240
000003a0: aee6 933d bcc7 df3f ab54 0440 73d7 0abf
000003b0: bd82 cd3d f603 d03d a25b 193e 0fa8 e3be
000003c0: 5a45 a7bd 142d 3540 df77 57bf 407b f63f
000003d0: cf76 37bf 9aa5 ccbd c568 05bf a822 cd3f
000003e0: 1629 21bf 2ffb 35be 535d 85bd d217 b4bf
000003f0: 2547 ac3d 4b14 82bf 80b7 02bc dfda f23f
-1.8105906 0.504188 -2.4879146 -1.5672289 -0.042190526 1.4085454 1.1274209 0.5814535
0.8213653 -1.6252563 -1.4085782 -0.018335352 -1.2695595 1.0650942 -1.697019 0.7072938
-1.7567685 -2.4459798 -0.02719703 0.4395595 0.5068195 1.0792196 -2.1964014 -0.1661486
0.15956792 0.08141192 0.27240175 -1.8475969 -0.08999529 0.974583 0.8429556 0.99436796
-1.9451255 -0.02860484 -2.2259324 0.7711658 -2.2903905 -2.588122 -1.8999029 -1.7466094
0.9443222 0.15616539 0.8984165 0.09863127 -0.1923727 1.0713909 -1.8769203 -0.091322124
-1.6582261 -2.0596356 -2.6727357 -0.13489224 0.99295634 0.03509862 0.35403433 -0.02571534
0.95536953 -0.019032381 -2.569507 -1.628365 0.6906542 0.1591122 0.18402223 0.15816748
-2.5840585 1.2189515 -2.1023881 1.005131 -1.8828408 0.026325446 0.8530084 -2.043152
-1.9338547 0.9017647 0.109998584 0.17841867 0.15671134 0.57717174 0.7913784 1.3094913
0.012819791 0.008961947 1.121808 -0.021188986 -2.5379014 -0.18021443 0.778386 -1.626145
-0.0718666 -0.15038618 0.088809535 0.10284049 -1.9424348 -1.5502479 -0.016734216 0.18246143
0.18512933 -0.007278581 0.078979075 0.13850047 0.593947 -0.058584657 -1.8175844 -2.1195514
0.061487217 -1.9026765 -1.7603573 0.35511285 -0.01003223 0.09951286 0.060706086 0.56342113
-0.027283046 -2.844801 0.87399244 -1.6255212 0.86361396 -0.0077028833 0.4678013 -1.8804675
0.76248556 -0.18119347 0.18410872 1.4471872 -0.16585252 1.0499175 -0.0004144758 -1.978502
1.5048313 -0.84360874 2.3599632 1.4876041 0.09421199 -1.2831331 -1.1954335 -0.40386084
-0.9138739 1.6250234 1.5007426 -0.06467158 1.2070613 -0.9219001 2.0019193 -1.0042266
1.5539402 2.5876417 -0.003994694 -0.5711365 -0.2028676 -1.1795131 2.3296053 -0.008522707
-0.007794639 -0.15071498 -0.09227645 2.0661712 0.18034096 -1.0053407 -0.805406 -0.80525315
2.0267243 -0.034606773 2.4517233 -0.8206724 2.4972577 2.2321544 1.8254709 1.7068853
-0.93129796 -0.04848131 -0.9573378 0.05761112 0.0061996267 -0.9664917 1.8518212 0.07942755
1.5491524 2.0523686 2.3880227 -0.019153558 -1.0081459 -0.034993343 -0.35847363 0.15693828
-0.9961167 -0.09523922 2.454868 1.662277 -0.85715824 -0.054058205 -0.1185267 -0.0015601106
2.4335735 -1.1652803 2.1287441 -0.926477 1.8309839 -0.0940658 -0.9086099 2.0031202
1.7230208 -0.9250297 0.11833722 0.14188656 0.17045443 -0.78500175 -1.0070955 -1.0600247
-0.16220629 0.01876981 -1.1273175 -0.17681815 2.3827312 0.019690735 -1.0838135 1.8008577
-0.025883317 0.18282588 -0.04214145 0.19845392 1.8410538 1.6781222 -0.0043651583 0.01412883
0.16909568 -0.095812246 -0.06867498 0.13199063 -0.3841776 0.04194333 1.9346414 2.033729
0.07221733 1.7482829 2.0676677 -0.54235 0.10034702 0.101570055 0.14976361 -0.44464156
-0.08167525 2.8308764 -0.84167284 1.9256363 -0.7166566 -0.099925235 -0.5211299 1.6026201
-0.6295332 -0.177716 -0.06511941 -1.4069769 0.08412007 -1.0162443 -0.00797832 1.8973044

sequential/dense/BiasAdd/ReadVariableOp f4 [128]
00000000: 5f7f 953c 85b4 413d ecb3 313d 8438 a83b
00000010: 2a3c 8abc d974 6e3d 7518 923d 0f88 503d
00000020: aadb 843d 8b35 6b3c 1298 b63c 0165 05bc
00000030: 0b06 a13c 0e16 813d ae6c 7b3a c3a1 3b3d
00000040: 4d30 523d c942 2f3d 5300 91bc ac7a 333d
00000050: 913c 07bb 854a 623d 11dc 363d 1df1 29bc
00000060: c79e c6bc 506d e8bc ae96 423d 22d4 8f3c
00000070: 5ec6 c4bb 817b 6e3d 10ef 643d ae46 513d
00000080: a6ee 953c 7464 bfbb e0a2 1f3d c6ae 863d
00000090: a75f 2a3d da6b 5c3d d282 343c acc7 1a3d
000000a0: 16b3 6d3d 9f96 86bc b179 5e3d f1e3 cebc
000000b0: dc33 5abc db56 633d f605 c13c 2538 5bbc
000000c0: cf92 993c 6fa7 133d bc45 673d 3be1 8dbc
000000d0: 1924 603d 2403 83bb ef76 abb9 67f7 9abc
000000e0: 58f6 443d 1ef8 09bd 3a1d 2d3d c3b4 1b3d
000000f0: 57a1 7d3d 9da3 b3bb 9450 cabc 6ea2 89bb
00000100: b524 353d c566 6a3d 5cf1 183d 2367 7d3d
00000110: 4ebc af3c f2b7 f7bc 20eb 663d f2c4 743c
00000120: df9b 3e3c f4ac 2f3d 61ea 8dbc ca61 ccbc
00000130: 6848 2dbc 1cb6 923d bbd1 403d ac1f 893d
00000140: 31e3 1fbc 42a4 03bc a96c 843d 3430 afbc
00000150: 994d 1b3d 992a 98bc a216 873d 658a 96bc
00000160: fa76 d2bc 80a4 86bc 8e10 b5bb 963a 5bbc
00000170: 34e7 093c 33e6 8b3c c861 21bc efce a9b9
00000180: 3bb1 82bc 57b2 8abc c8a9 04bd 7b92 cdbc
00000190: 01b5 643d 0a53 2abb f180 613c dab6 2a3d
000001a0: a5e5 1fbc 05b4 f13c 06da 2a3d b6eb 5a3d
000001b0: ef82 0cbc d594 1cbc 5ea6 31bc ee14 223d
000001c0: 6892 edbb 1611 4a3d 13fa 933d 4dbc ba3b
000001d0: c6b1 8c3d ab19 92ba 41e4 893d 28b9 823b
000001e0: 0297 9d3d 7f88 f4bb 414d babb 4aef 653d
000001f0: 1c21 06bc 0b91 983d 5191 cbbc af1f fb3b
0.018249212 0.047291297 0.043384477 0.0051336903 -0.016874392 0.058216903 0.07133571 0.050911006
0.0648721 0.014356027 0.02228931 -0.008141757 0.019656202 0.06303035 0.00095910847 0.045808565
0.051315594 0.0427883 -0.01770035 0.04381816 -0.0020635466 0.05524685 0.044643465 -0.010372427
-0.024245633 -0.028372437 0.04750698 0.017557207 -0.0060050925 0.05822325 0.05589205 0.051092796
0.018302273 -0.0058408324 0.03897369 0.06576304 0.041595127 0.053813793 0.011017518 0.03778808
0.058032118 -0.016429244 0.054315273 -0.025255175 -0.013318028 0.055502754 0.023562413 -0.013380085
0.018746762 0.03604835 0.05646299 -0.017319312 0.054721925 -0.003998177 -0.00032704274 -0.018916799
0.048086494 -0.03368389 0.0422642 0.038014185 0.061921444 -0.0054821507 -0.024696626 -0.0042002713
0.04422446 0.057226915 0.037339553 0.061865937 0.021452095 -0.03023908 0.056376576 0.014939534
0.011633842 0.04288955 -0.017323675 -0.024948973 -0.010576345 0.07163641 0.047075015 0.06695494
-0.0097587565 -0.008034768 0.06466038 -0.02138529 0.0379158 -0.018575 0.06596114 -0.018376539
-0.025691498 -0.016435862 -0.005525655 -0.013380667 0.0084169395 0.017077541 -0.009849973 -0.0003238837
-0.01595365 -0.016930742 -0.03238848 -0.025094261 0.05583668 -0.0025989437 0.013763652 0.041678287
-0.009759341 0.029504785 0.04171183 0.053447448 -0.008576139 -0.009556969 -0.010842888 0.03957074
-0.007250119 0.0493327 0.07225432 0.0056987167 0.06869845 -0.0011146566 0.06732989 0.0039893575
0.07694818 -0.0074625607 -0.005685479 0.056136407 -0.008186605 0.0744954 -0.024849566 0.007663689

sequential/dense_1/BiasAdd/ReadVariableOp f4 [2]
00000000: 80f4 a13e 72f4 a1be
0.3163185 -0.3163181

sequential/conv2d/BiasAdd/ReadVariableOp f4 [32]
00000000: 81bf 62bc 5c86 2b3d 9f2b 983d 6e29 333d
00000010: e20d 9b3d 8385 793d 7750 de3d 38a4 a23d
00000020: 1b42 00bb 00b9 92bd 8a3d 9e3d 9654 023e
00000030: c5b1 9bbc aa9a b93d 75ac 073e 8a3d cbbd
00000040: 11a0 e33d 43ae b93e 5d5c 393e 4d77 db3d
00000050: dffa a63d a79b 8a3c 2112 b53e 2803 943c
00000060: 1ce2 603c 5e32 9e3d c94f 88bc f254 c43d
00000070: c24d d43d 4ff5 0e3e 7223 9dbd 25aa 77be
-0.013839603 0.041876182 0.07430195 0.043740682 0.07571007 0.060918342 0.10855191 0.079414785
-0.0019570652 -0.07164192 0.077265814 0.1272758 -0.019005666 0.09062703 0.13249381 -0.09923847
0.111145146 0.36265764 0.1810164 0.10716114 0.081533186 0.016919924 0.35365394 0.018067911
0.013725784 0.077244505 -0.016639607 0.095865145 0.103663936 0.13960765 -0.07672776 -0.24185999

sequential/conv2d_1/BiasAdd/ReadVariableOp f4 [64]
00000000: d184 f73e 6310 eebe 6d6e 86bc 58e4 873d
00000010: 24a9 033f 4d3f 2fbc 9eb4 803e c9bf 153e
00000020: fcaa 62bd cb25 d13e 5245 8fbc 92d9 84bc
00000030: 4870 843e 243d ca39 11cb 683e ebc6 6a3d
00000040: 6d32 07bd 23be 00bd d697 b8bd 9215 3dbd
00000050: 5d0b e4bc d021 7c3c 4823 49bd 2e87 55bc
00000060: c0a9 b23e 1a20 dabe 368e 3dbb 7497 123e
00000070: a5c3 0cbd 47ac 373d 1560 c3bc 3a8a 173f
00000080: 9d9f 0dbd 025c 04bd 2982 ef3e 5b21 c13c
00000090: 023c f0bc 11a2 8fbc 196a 24bd ccf4 033e
000000a0: e822 b1bb 0a0e ffbc 1807 343e fe0f 8bbb
000000b0: b4b6 ec3d 7892 71bd 5580 c93d 2562 66bc
000000c0: 39b1 3abd 0c67 c63e 1e45 9a3e f36b a93d
000000d0: 1a9d 7fbe 9f5d 0dbd 8d79 193c 13a3 c1bd
000000e0: 09c5 123b adc6 99bd eb8f 1b3d fdfc 1e3d
000000f0: 2102 5fbc 3d94 36bd 4e68 4dbd c5e2 a53d
0.48343518 -0.46496877 -0.016410077 0.0663535 0.51429963 -0.010696244 0.251378 0.14623941
-0.055338845 0.40849146 -0.01748911 -0.016217027 0.25866914 0.00038573996 0.22733714 0.05731861
-0.033007074 -0.03143133 -0.090133354 -0.04616315 -0.02783745 0.015388921 -0.049105912 -0.013032718
0.34895134 -0.42602617 -0.0028923876 0.14315587 -0.03436627 0.04484203 -0.023849526 0.5919529
-0.034576047 -0.032314308 0.46778992 0.023575475 -0.029325489 -0.017533334 -0.040140245 0.12886351
-0.0054057725 -0.031134624 0.17580831 -0.00424385 0.11558285 -0.058977574 0.098389305 -0.014061485
-0.04557917 0.38750494 0.30130857 0.08272543 -0.24962273 -0.034513112 0.009367359 -0.09454932
0.0022395274 -0.075085975 0.037979048 0.038815487 -0.013611347 -0.044574965 -0.0501483 0.080998935

sequential/conv2d/Conv2D f4 [32, 3, 3, 3]
00000000: 0890 b4be 6592 12bf 2980 2fbe 0184 e0be
00000010: 4372 ecbe a60a 96be 8a20 e4be 125a 0bbf
00000020: 18bd 78be 9842 a03c e2f5 74bd f0db aa3e
00000030: 51e6 783e 6d64 e6bd f6a1 ae3e 53cf 103d
00000040: cb9e c2bd 4a6c 063e 16eb f03d 3f3f 2c3e
00000050: 4760 8f3e b1f6 ac3e e348 cb3d dc17 b83e
00000060: 1f2a 813e 2349 7f3d b02c be3e 2933 82be
00000070: f645 b6be 3bcc 1fbf 2b25 ad3d 7d5b a1bb
00000080: 4c9a b5bd b8dd 2b3e dbba 373e 8777 963d
00000090: 510e f3bd 5d6c b6be 8487 38bf e5e0 4e3e
000000a0: 1cdf 493d 1f07 c2bd 77d4 a03e dc15 5f3e
000000b0: df25 823e 8f15 febd 9ed4 56be 0e5a cdbe
000000c0: 0de8 e63c 5894 c53d 4ef7 6a3a 9af2 ad3e
000000d0: 8cd0 6a3e fb1a 913e 5cd1 5fbe e6d3 4c3d
000000e0: ea74 39bf 4e94 093d 6ed4 b0bc 134a 6fbe
000000f0: 1d64 963d 7a59 9f3e 9e7a 0bbe aea7 9cbe
00000100: 5e94 553b bdc2 36bf 0577 e63d 0aa9 503e
00000110: e56e 3dbe 2cdd 423d 583f 843e 2d75 c2bd
00000120: af69 63be fd26 f1bc c309 07bf f2b4 a83c
00000130: c2e4 ba3e 88b8 b8bd 48b2 343e d6e7 153e
00000140: 408c e7bd 149f 0dbc 0838 b7bc 4087 0cbf
00000150: ac75 a7bd 3d1e 7c3e 0746 e6be 8f9a f6bd
00000160: 25fd 0b3e 2054 bfbe 02f6 0a3e f58d 2b3e
00000170: 201d 79bd a523 0a3e f512 743e e8dc 61be
00000180: 42ff 5f3e 9eec a63e 4be1 ef3c a195 b93d
00000190: 20f3 1d3d eca9 a1be 3753 1f3e 80ff 2ebb
000001a0: 7ece 2cbe e990 02bd 9fe6 73bc 873e 28bf
000001b0: a900 893c 4af5 b3be 9a4f abbe ec70 49be
000001c0: 4dd6 95be 2673 74be 8701 2f3e caee 8dbd
000001d0: 6b66 d13a 08df 05bc e806 1b3d ffd3 373d
000001e0: df99 b13e 1dd3 4d3e 3f7e 573e c16a 953e
000001f0: 20d4 443e 4c8e 143e 14ea 453e 8153 d5bd
00000200: 5e9f 553e 0539 323c 5a8b 0abe c782 1cbe
00000210: 0c08 03be 5207 dcbe 6544 43be 4367 0dbe
00000220: 3fd1 383e 72d8 3cbe a6d0 c43d 917e 753e
00000230: 3a26 623e bea0 72be 3322 02be 706e 0cbe
00000240: be85 36bc 8e96 643e 6073 14be f54f 32be
00000250: a08f 05bd d777 4bbe d204 dd3d 3e8e d73d
00000260: cb6c dabd 301e e53c 0332 063e 4746 10be
00000270: 2a02 79be e21f bc3c 16e5 a1be e819 77bc
00000280: ddc5 a13e 04e3 843e 526e 6bbd 54f2 a23e
00000290: e570 04be 7c40 abbc 3187 bf3e 65ee 773e
000002a0: 61bc b1bc 29a2 1b3e 04f8 a63d e121 9fbe
000002b0: c74c c6bd 429e 7bbe 21e3 a2be 3f46 81bd
000002c0: 47e7 a9be 2cc9 c23d 0e52 9c3e 9d72 353e
000002d0: 89bc 3ebd 5b8d 823e 935f 0d3e 6394 f7bc
000002e0: d55a 6d3c 161f 4cbd 46d0 99be b1f2 b1bd
000002f0: 512c 9abe ee1c 1abd bb88 39bb 4475 be3d
00000300: c717 09be b494 f1bd 08e1 2dbe 4420 8abe
00000310: 201e 82bd 347a 41be 5621 1d3e 2c6f 6e3e
00000320: 8594 053e f2a5 25be 21bc a9bd f7b1 703b
00000330: 8c30 b3be 50cd dabe 2b0d b4be 8d58 aa3e
00000340: 8a49 ab3e 961f b13e ba6d 3b3e 77d6 533e
00000350: d577 5c3e 8f8f 2bbe 86e0 36be b45b 153d
00000360: 0465 bc3d 2b40 c83d c6be b1bd 92fe e83b
00000370: a217 89bb 3e96 aebe ae40 1c3e 933f 1b3e
00000380: f523 86be a90d 4f3e 68cd c73d 13f7 aabe
00000390: a31b 693d 1ede eaba 61ec dfbe 5b57 923e
000003a0: c447 633d 57e7 0ebe fa16 f93d d4c4 b33b
000003b0: 6197 bcbe bdb9 373e 4e1c fc3c 7189 bdbd
000003c0: 7845 783e ca16 ac3d 7201 c8bd 8e12 883e
000003d0: 7184 86bd 8194 be3e 15f2 d03e 5edd 993c
000003e0: 8d51 d93e b805 4d3e aabb adbc 3574 c43e
000003f0: bd65 03be 8b77 e7be 6889 103d d8a2 893a
-0.35266137 -0.5725463 -0.17138733 -0.4385071 -0.46180925 -0.29305 -0.44556075 -0.5443431
-0.24290884 0.019563004 -0.059804805 0.33370924 0.24306609 -0.112496234 0.3410794 0.03535397
-0.095029436 0.13127246 0.11763589 0.16821001 0.2800314 0.3378196 0.099260114 0.35955703
0.25227448 0.062325608 0.3714347 -0.25429657 -0.3560025 -0.62421006 0.08454355 -0.0049242363
-0.088673204 0.16783798 0.17942373 0.07347017 -0.11867965 -0.3562955 -0.7208178 0.20202978
0.04928504 -0.094740145 0.31412098 0.21785682 0.25419518 -0.12406456 -0.20979545 -0.4010777
0.028186822 0.09647435 0.0008963243 0.33974153 0.22931117 0.28340897 -0.21857208 0.05000677
-0.7244402 0.0335887 -0.02158567 -0.23368101 0.07343314 0.31122953 -0.13620993 -0.3059668
0.0032589654 -0.713909 0.1125317 0.20376983 -0.18499334 0.047574207 0.25829577 -0.09495006
-0.22208284 -0.029437536 -0.5274927 0.020594094 0.36502653 -0.090195715 0.17646134 0.1463922
-0.113060474 -0.008643884 -0.022365585 -0.54893875 -0.08176741 0.2462091 -0.44975302 -0.120411985
0.13670786 -0.3736887 0.13570407 0.16753371 -0.06081879 0.1349016 0.23835357 -0.22056925
0.21874717 0.326024 0.029282233 0.090617426 0.03856194 -0.31574953 0.15559088 -0.0026702583
-0.16875646 -0.03187648 -0.014886527 -0.6572041 0.016723948 -0.35148078 -0.3345917 -0.19671983
-0.2926506 -0.2387205 0.17090426 -0.06930311 0.0015975958 -0.008170851 0.037848383 0.04487991
0.34687707 0.20100065 0.21044253 0.2918301 0.19221544 0.14507407 0.19327575 -0.10416318
0.20861575 0.010877852 -0.13529721 -0.15284263 -0.12796038 -0.42974335 -0.19069059 -0.13808922
0.18048571 -0.18441942 0.09610109 0.23974063 0.22084895 -0.23694131 -0.12708358 -0.13714004
-0.011140285 0.22323057 -0.14497137 -0.17413314 -0.032607675 -0.19869934 0.10791935 0.105251774
-0.10665282 0.027968496 0.13105015 -0.14089309 -0.24317232 0.022964422 -0.3162009 -0.01508186
0.3159627 0.2595445 -0.057478257 0.31825507 -0.12933691 -0.020904772 0.3740783 0.24212034
-0.021696271 0.15198578 0.08152774 -0.31080535 -0.09682613 -0.2457209 -0.3181391 -0.063122265
-0.33184263 0.09511027 0.30531353 0.17719503 -0.04656652 0.2549847 0.1380599 -0.030222123
0.014486988 -0.049834333 -0.30041713 -0.08688868 -0.30111936 -0.037625246 -0.0028310257 0.092997104
-0.13387977 -0.11795941 -0.16980374 -0.26977742 -0.06353402 -0.18894273 0.15344748 0.23284596
0.13044937 -0.16176584 -0.08287836 0.003672717 -0.34997976 -0.42734766 -0.35166296 0.33270684
0.33454543 0.3459441 0.18303576 0.2068728 0.21530087 -0.16753982 -0.17859086 0.036464408
0.09198955 0.09777864 -0.08678965 0.0071104253 -0.0041837255 -0.34099 0.15259048 0.1516097
-0.26199308 0.20220055 0.09755975 -0.33391628 0.056911122 -0.0017918979 -0.4373503 0.28582272
0.055488363 -0.13955437 0.121625856 0.00548611 -0.36834243 0.17941947 0.030775215 -0.092547305
0.2424525 0.08402784 -0.09765901 0.26576656 -0.0656823 0.37222674 0.40809694 0.018782314
0.4244503 0.20021713 -0.02120765 0.3836991 -0.12831779 -0.45208392 0.03528729 0.0010500802

sequential/conv2d_1/Conv2D i1 [64, 3, 3, 32]
00000000: 13f4 ccc3 a21f fdfd eb0a ff24 e905 0325
00000010: f6b5 fcfe f78d 08cc 2ffd fbe3 fcfa fcd4
00000020: 18ee bebd b12a fd07 f103 fb29 f802 e02c
00000030: fcd3 0908 f684 08d7 2ffa f9e9 0400 fbde
00000040: 18eb 9eb9 a320 f9f7 f3fb f91e f9fd c81b
00000050: f3d1 02f8 f084 09c6 2d01 fbdd 04f8 fdd6
00000060: 110f ecd2 ba2e fe04 f0fb ff29 04ff 282f
00000070: 02e3 170b f681 13d6 3700 fde4 01f5 fbe4
00000080: 1f19 eed0 bb3e 0106 f9f5 0624 11fc 1b36
00000090: 09e8 1809 0083 13d3 43fb fde0 03f9 ffe5
000000a0: 1c1c d9b9 ad2c fa01 f8fc 0016 0eff 0726
000000b0: 05c6 10fa f59a 0cbd 2efa ffe8 05f2 ffd2
000000c0: 0b0c f6d1 c62b f407 efea fa1e 0a06 222d
000000d0: 0ad8 17fe f481 19cd 33fa 03c7 ffed 01d5
000000e0: 1020 f2de df34 fc04 f1f8 fd2c 1905 242d
000000f0: 09e2 1d05 fa90 17d2 3401 01db 01f3 feda
19 -12 -52 -61 -94 31 -3 -3
-21 10 -1 36 -23 5 3 37
-10 -75 -4 -2 -9 -115 8 -52
47 -3 -5 -29 -4 -6 -4 -44
24 -18 -66 -67 -79 42 -3 7
-15 3 -5 41 -8 2 -32 44
-4 -45 9 8 -10 -124 8 -41
47 -6 -7 -23 4 0 -5 -34
24 -21 -98 -71 -93 32 -7 -9
-13 -5 -7 30 -7 -3 -56 27
-13 -47 2 -8 -16 -124 9 -58
45 1 -5 -35 4 -8 -3 -42
17 15 -20 -46 -70 46 -2 4
-16 -5 -1 41 4 -1 40 47
2 -29 23 11 -10 -127 19 -42
55 0 -3 -28 1 -11 -5 -28
31 25 -18 -48 -69 62 1 6
-7 -11 6 36 17 -4 27 54
9 -24 24 9 0 -125 19 -45
67 -5 -3 -32 3 -7 -1 -27
28 28 -39 -71 -83 44 -6 1
-8 -4 0 22 14 -1 7 38
5 -58 16 -6 -11 -102 12 -67
46 -6 -1 -24 5 -14 -1 -46
11 12 -10 -47 -58 43 -12 7
-17 -22 -6 30 10 6 34 45
10 -40 23 -2 -12 -127 25 -51
51 -6 3 -57 -1 -19 1 -43
16 32 -14 -34 -33 52 -4 4
-15 -8 -3 44 25 5 36 45
9 -30 29 5 -6 -112 23 -46
52 1 1 -37 1 -13 -2 -38

sequential/dense/MatMul i1 [128, 64] scale=0.00084120437 zero_point=0
00000000: edf6 001f edfa 1e0a 000f f600 2efa 3ef7
00000010: 00fb 2c27 1620 29fb 21cb fa1a f5f7 e3ef
00000020: fb00 ed26 00fb 0026 f900 1e00 2500 1c00
00000030: 4a22 0a23 20fa faf8 291a f9f7 d720 3908
00000040: 03d8 00f4 040d f3fb 00fc 0d00 f10e ee18
00000050: 0009 e4f7 faf5 f708 f40e 0efa 0916 0c01
00000060: 0800 05ee 000b 00f7 1000 f700 f700 f900
00000070: ece5 04e9 e709 0f08 f8f7 1215 02f9 f3fa
00000080: ed16 0002 eef5 0700 000d f200 02f4 05df
00000090: 00f6 fafe fc04 01f7 08e1 f403 f5e8 cee0
000000a0: f600 ef01 00f5 0008 f300 0700 0700 0200
000000b0: f815 04f8 fbf7 f3f8 24f6 ede8 95fb f901
000000c0: f807 000e f5f3 220e 0047 e000 26f3 30ed
000000d0: 00f3 1d05 110a 07f3 38e5 f30b d6ef dcef
000000e0: f300 f523 00f3 000d f200 0e00 0d00 0600
000000f0: 155a 4015 0ff2 f3ec 0a0d f2f0 e101 0901
-0.015982883 -0.008412044 0.0 0.026077336 -0.015982883 -0.0050472263 0.025236132 0.008412044
0.0 0.012618066 -0.008412044 0.0 0.038695402 -0.0050472263 0.05215467 -0.0075708395
0.0 -0.004206022 0.03701299 0.03280697 0.018506495 0.02691854 0.03448938 -0.004206022
0.027759744 -0.04458383 -0.0050472263 0.021871313 -0.009253248 -0.0075708395 -0.024394928 -0.014300474
-0.004206022 0.0 -0.015982883 0.031965766 0.0 -0.004206022 0.0 0.031965766
-0.0058884304 0.0 0.025236132 0.0 0.031124562 0.0 0.023553722 0.0
0.062249124 0.028600948 0.008412044 0.029442152 0.02691854 -0.0050472263 -0.0050472263 -0.006729635
0.03448938 0.021871313 -0.0058884304 -0.0075708395 -0.03448938 0.02691854 0.047948647 0.006729635
0.0025236132 -0.033648174 0.0 -0.010094453 0.0033648175 0.010935657 -0.010935657 -0.004206022
0.0 -0.0033648175 0.010935657 0.0 -0.012618066 0.011776861 -0.015141679 0.020188905
0.0 0.0075708395 -0.023553722 -0.0075708395 -0.0050472263 -0.009253248 -0.0075708395 0.006729635
-0.010094453 0.011776861 0.011776861 -0.0050472263 0.0075708395 0.018506495 0.010094453 0.00084120437
0.006729635 0.0 0.004206022 -0.015141679 0.0 0.009253248 0.0 -0.0075708395
0.01345927 0.0 -0.0075708395 0.0 -0.0075708395 0.0 -0.0058884304 0.0
-0.016824087 -0.022712518 0.0033648175 -0.019347701 -0.02103011 0.0075708395 0.012618066 0.006729635
-0.006729635 -0.0075708395 0.015141679 0.017665291 0.0016824087 -0.0058884304 -0.010935657 -0.0050472263
-0.015982883 0.018506495 0.0 0.0016824087 -0.015141679 -0.009253248 0.0058884304 0.0
0.0 0.010935657 -0.011776861 0.0 0.0016824087 -0.010094453 0.004206022 -0.027759744
0.0 -0.008412044 -0.0050472263 -0.0016824087 -0.0033648175 0.0033648175 0.00084120437 -0.0075708395
0.006729635 -0.026077336 -0.010094453 0.0025236132 -0.009253248 -0.020188905 -0.04206022 -0.02691854
-0.008412044 0.0 -0.014300474 0.00084120437 0.0 -0.009253248 0.0 0.006729635
-0.010935657 0.0 0.0058884304 0.0 0.0058884304 0.0 0.0016824087 0.0
-0.006729635 0.017665291 0.0033648175 -0.006729635 -0.004206022 -0.0075708395 -0.010935657 -0.006729635
0.030283358 -0.008412044 -0.015982883 -0.020188905 -0.09000887 -0.004206022 -0.0058884304 0.00084120437
-0.006729635 0.0058884304 0.0 0.011776861 -0.009253248 -0.010935657 0.028600948 0.011776861
0.0 0.05972551 -0.02691854 0.0 0.031965766 -0.010935657 0.04037781 -0.015982883
0.0 -0.010935657 0.024394928 0.004206022 0.014300474 0.008412044 0.0058884304 -0.010935657
0.047107443 -0.022712518 -0.010935657 0.009253248 -0.035330582 -0.014300474 -0.030283358 -0.014300474
-0.010935657 0.0 -0.009253248 0.029442152 0.0 -0.010935657 0.0 0.010935657
-0.011776861 0.0 0.011776861 0.0 0.010935657 0.0 0.0050472263 0.0
0.017665291 0.0757084 0.05383708 0.017665291 0.012618066 -0.011776861 -0.010935657 -0.016824087
0.008412044 0.010935657 -0.011776861 -0.01345927 -0.026077336 0.00084120437 0.0075708395 0.00084120437
